…
ta from https://storage.googleapis.com/tensorflow/keras-applications/vgg16/vgg16_weights_tf_dim_ordering_tf_kernels_notop.h5\n","58892288/58889256 [==============================] - 1s 0us/step\n","Model: \"model_7\"\n","_________________________________________________________________\n","Layer (type)                 Output Shape              Param #   \n","=================================================================\n","input_8 (InputLayer)         [(None, 64, 64, 3)]       0         \n","_________________________________________________________________\n","block1_conv1 (Conv2D)        (None, 64, 64, 64)        1792      \n","_________________________________________________________________\n","block1_conv2 (Conv2D)        (None, 64, 64, 64)        36928     \n","_________________________________________________________________\n","block1_pool (MaxPooling2D)   (None, 32, 32, 64)        0         \n","_________________________________________________________________\n","block2_conv1 (Conv2D)        (None, 32, 32, 128)       73856     \n","_________________________________________________________________\n","block2_conv2 (Conv2D)        (None, 32, 32, 128)       147584    \n","_________________________________________________________________\n","block2_pool (MaxPooling2D)   (None, 16, 16, 128)       0         \n","_________________________________________________________________\n","block3_conv1 (Conv2D)        (None, 16, 16, 256)       295168    \n","_________________________________________________________________\n","block3_conv2 (Conv2D)        (None, 16, 16, 256)       590080    \n","_________________________________________________________________\n","block3_conv3 (Conv2D)        (None, 16, 16, 256)       590080    \n","_________________________________________________________________\n","block3_pool (MaxPooling2D)   (None, 8, 8, 256)         0         \n","_________________________________________________________________\n","block4_conv1 (Conv2D)        (None, 8, 8, 512)         1180160   \n","_________________________________________________________________\n","block4_conv2 (Conv2D)        (None, 8, 8, 512)         2359808   \n","_________________________________________________________________\n","block4_conv3 (Conv2D)        (None, 8, 8, 512)         2359808   \n","_________________________________________________________________\n","block4_pool (MaxPooling2D)   (None, 4, 4, 512)         0         \n","_________________________________________________________________\n","block5_conv1 (Conv2D)        (None, 4, 4, 512)         2359808   \n","_________________________________________________________________\n","block5_conv2 (Conv2D)        (None, 4, 4, 512)         2359808   \n","_________________________________________________________________\n","block5_conv3 (Conv2D)        (None, 4, 4, 512)         2359808   \n","_________________________________________________________________\n","block5_pool (MaxPooling2D)   (None, 2, 2, 512)         0         \n","_________________________________________________________________\n","flatten_7 (Flatten)          (None, 2048)              0         \n","_________________________________________________________________\n","dense_21 (Dense)             (None, 4096)              8392704   \n","_________________________________________________________________\n","dense_22 (Dense)             (None, 4096)              16781312  \n","_________________________________________________________________\n","dense_23 (Dense)             (None, 200)               819400    \n","=================================================================\n","Total params: 40,708,104\n","Trainable params: 25,993,416\n","Non-trainable params: 14,714,688\n","_________________________________________________________________\n","Epoch 1/20\n","704/704 - 20s - loss: 4.1613 - categorical_accuracy: 0.2876 - val_loss: 2.8740 - val_categorical_accuracy: 0.3659\n","Epoch 2/20\n","704/
…
