…
to_cnn = classifier.fit(representation_conv_auto_train, y_train, batch_size=128,\n","          epochs=epochs, verbose=1, validation_data=(representation_conv_auto_test,y_test))\n","print(\"Accuracy with CNN auto classifier: \", history_auto_cnn.history['acc'][-1])"],"execution_count":54,"outputs":[{"output_type":"stream","text":["Model: \"sequential_42\"\n","_________________________________________________________________\n","Layer (type)                 Output Shape              Param #   \n","=================================================================\n","max_pooling2d_39 (MaxPooling (None, 16, 16, 1)         0         \n","_________________________________________________________________\n","conv2d_55 (Conv2D)           (None, 16, 16, 128)       1280      \n","_________________________________________________________________\n","max_pooling2d_40 (MaxPooling (None, 8, 8, 128)         0         \n","_________________________________________________________________\n","conv2d_56 (Conv2D)           (None, 8, 8, 256)         295168    \n","_________________________________________________________________\n","max_pooling2d_41 (MaxPooling (None, 4, 4, 256)         0         \n","_________________________________________________________________\n","conv2d_57 (Conv2D)           (None, 4, 4, 512)         1180160   \n","_________________________________________________________________\n","max_pooling2d_42 (MaxPooling (None, 2, 2, 512)         0         \n","_________________________________________________________________\n","conv2d_58 (Conv2D)           (None, 2, 2, 512)         2359808   \n","_________________________________________________________________\n","flatten_28 (Flatten)         (None, 2048)              0         \n","_________________________________________________________________\n","representation (Dense)       (None, 10)                20490     \n","_________________________________________________________________\n","dense_89 (Dense)             (None, 1024)              11264     \n","_________________________________________________________________\n","activation_36 (Activation)   (None, 1024)              0         \n","_________________________________________________________________\n","dense_90 (Dense)             (None, 1024)              1049600   \n","_________________________________________________________________\n","activation_37 (Activation)   (None, 1024)              0         \n","_________________________________________________________________\n","reshape_30 (Reshape)         (None, 32, 32, 1)         0         \n","=================================================================\n","Total params: 4,917,770\n","Trainable params: 4,917,770\n","Non-trainable params: 0\n","_________________________________________________________________\n","Epoch 1/20\n","469/469 [==============================] - 6s 11ms/step - loss: 0.0446 - mse: 0.0446 - val_loss: 0.0152 - val_mse: 0.0152\n","Epoch 2/20\n","46
…
