…
tor.trainable = False\n","ganInput = Input(shape=(randomDim,))\n","x = generator(ganInput)\n","ganOutput = discriminator(x)\n","gan = Model(inputs=ganInput, outputs=ganOutput)\n","gan.compile(loss='binary_crossentropy', optimizer=adam)\n","gan.summary()\n","\n","\n"],"execution_count":null,"outputs":[{"output_type":"stream","text":["Model: \"sequential\"\n","_________________________________________________________________\n","Layer (type)                 Output Shape              Param #   \n","=================================================================\n","dense (Dense)                (None, 6272)              68992     \n","_________________________________________________________________\n","leaky_re_lu (LeakyReLU)      (None, 6272)              0         \n","_________________________________________________________________\n","reshape (Reshape)            (None, 7, 7, 128)         0         \n","_________________________________________________________________\n","up_sampling2d (UpSampling2D) (None, 14, 14, 128)       0         \n","_________________________________________________________________\n","conv2d (Conv2D)              (None, 14, 14, 64)        204864    \n","_________________________________________________________________\n","leaky_re_lu_1 (LeakyReLU)    (None, 14, 14, 64)        0         \n","_________________________________________________________________\n","up_sampling2d_1 (UpSampling2 (None, 28, 28, 64)        0         \n","_________________________________________________________________\n","conv2d_1 (Conv2D)            (None, 28, 28, 1)         1601      \n","=================================================================\n","Total params: 275,457\n","Trainable params: 275,457\n","Non-trainable params: 0\n","_________________________________________________________________\n","Model: \"sequential_1\"\n","_________________________________________________________________\n","Layer (type)                 Output Shape              Param #   \n","=================================================================\n","conv2d_2 (Conv2D)            (None, 14, 14, 64)        1664      \n","_________________________________________________________________\n","leaky_re_lu_2 (LeakyReLU)    (None, 14, 14, 64)        0         \n","_________________________________________________________________\n","dropout (Dropout)            (None, 14, 14, 64)        0         \n","_________________________________________________________________\n","conv2d_3 (Conv2D)            (None, 7, 7, 128)         204928    \n","_________________________________________________________________\n","leaky_re_lu_3 (LeakyReLU)    (None, 7, 7, 128)         0         \n","_________________________________________________________________\n","dropout_1 (Dropout)          (None, 7, 7, 128)         0         \n","_________________________________________________________________\n","flatten (Flatten)            (None, 6272)              0         \n","_________________________________________________________________\n","dense_1 (Dense)              (None, 1)                 6273      \n","=================================================================\n","Total params: 212,865\n","Trainable params: 212,865\n","Non-trainable params: 0\n","_________________________________________________________________\n","Model: \"model\"\n","_________________________________________________________________\n","Layer (type)                 Output Shape              Param #   \n","=================================================================\n","input_1 (InputLayer)         [(None, 10)]              0         \n","_________________________________________________________________\n","sequential (Sequential)      (None, 28, 28, 1)         275457    \n","_________________________________________________________________\n","sequential_1 (Sequential)    (None, 1)                 212865    \n","=================================================================\n","Total params: 488,322\n","Trainable params: 275,457\n","Non-trainable params: 212,865\n","_________________________________________________________________\n"],"name":"stdout"}]},{"cell_type":"code","metadata":{"colab":{"base_uri":"https://localhost:8080/","height":746,"referenced_widgets":["8332221687e542de880641f5fd81
…
