…
h 38/40\n","1563/1563 - 12s - loss: 0.3512 - accuracy: 0.8759 - val_loss: 0.6907 - val_accuracy: 0.7911\n","Epoch 39/40\n","1563/1563 - 12s - loss: 0.3389 - accuracy: 0.8810 - val_loss: 0.7401 - val_accuracy: 0.7900\n","Epoch 40/40\n","1563/1563 - 12s - loss: 0.3344 - accuracy: 0.8837 - val_loss: 0.7098 - val_accuracy: 0.7904\n","Model: \"sequential_27\"\n","_________________________________________________________________\n","Layer (type)                 Output Shape              Param #   \n","=================================================================\n","sequential_26 (Sequential)   (None, 32, 32, 3)         0         \n","_________________________________________________________________\n","conv2d_48 (Conv2D)           (None, 32, 32, 32)        896       \n","_________________________________________________________________\n","activation_60 (Activation)   (None, 32, 32, 32)        0         \n","_________________________________________________________________\n","max_pooling2d_36 (MaxPooling (None, 16, 16, 32)        0         \n","_________________________________________________________________\n","conv2d_49 (Conv2D)           (None, 16, 16, 64)        18496     \n","_________________________________________________________________\n","activation_61 (Activation)   (None, 16, 16, 64)        0         \n","_________________________________________________________________\n","max_pooling2d_37 (MaxPooling (None, 8, 8, 64)          0         \n","_________________________________________________________________\n","conv2d_50 (Conv2D)           (None, 8, 8, 128)         73856     \n","_________________________________________________________________\n","activation_62 (Activation)   (None, 8, 8, 128)         0         \n","_________________________________________________________________\n","max_pooling2d_38 (MaxPooling (None, 4, 4, 128)         0         \n","_________________________________________________________________\n","conv2d_51 (Conv2D)           (None, 4, 4, 256)         295168    \n","_________________________________________________________________\n","activation_63 (Activation)   (None, 4, 4, 256)         0         \n","_________________________________________________________________\n","global_average_pooling2d_12  (None, 256)               0         \n","_________________________________________________________________\n","dense_12 (Dense)             (None, 10)                2570      \n","_________________________________________________________________\n","activation_64 (Activation)   (None, 10)                0         \n","=================================================================\n","Total params: 390,986\n","Trainable params: 390,986\n","Non-trainable params: 0\n","_________________________________________________________________\n"],"name":"stdout"}]},{"cell_type":"code","metadata":{"colab":{"base_uri":"https://localhost:8080/","height":294},"id":"wnuies45jHR-","executionInfo":{"status":"ok",
…
